android/app/src/main/assets/model/bottleneck.tflite (tflite, 547064 bytes, 8 tensors)

StatefulPartitionedCall/model_1/conv2d/Conv2D/ReadVariableOp f4 [32, 1, 24, 6]
000000 c3 11 11 3d 2f 48 82 3c 8d fd d6 bd 0e ee 26 3d
       0.03541733 0.01590356 -0.1049758 0.04075437
000010 1f 4b ee 3b 33 99 03 3c 95 5d d3 bc 35 07 62 bd
       0.0072721387 0.008032131 -0.02580146 -0.055182654
000020 53 b3 0b be 52 be cb bc 40 e7 08 3d dc 33 87 3d
       -0.13642626 -0.024871025 0.033423662 0.06601688
000030 6a d7 cc 39 bd 23 28 3d 7e 4b 0d be 7e b2 6c 3d
       0.00039070408 0.041049708 -0.13798329 0.05778741
000040 f9 e8 a3 bd 3f 79 23 bd a3 30 41 bd c7 10 8f 3d
       -0.080034204 -0.03991055 -0.047165524 0.06985622
000050 32 31 c4 bd 88 54 9a bc 82 85 b0 3b e1 8e e4 bb
       -0.09579696 -0.018839136 0.005387009 -0.0069750403
000060 4a c9 93 3d 8f 21 ad bd d9 72 4c 3c 92 3e 2b bd
       0.07216127 -0.084536664 0.012478554 -0.04180772
000070 96 70 98 bb 05 36 a2 3c d6 42 ae 3d 5a 6e 6c bc
       -0.004652093 0.01980115 0.08508842 -0.014430607
000080 23 54 a3 bc 62 15 47 bb 37 f1 51 3d fb b6 82 bd
       -0.01993758 -0.0030377735 0.05125543 -0.06382557
000090 b8 8f 61 3d df 1e c1 bd 57 f3 c0 bd 31 b9 92 3d
       0.0550687 -0.09429716 -0.094214134 0.07164229
0000a0 e2 f1 09 3d 7f d7 56 bc 59 9e 61 bd 9a 98 f0 bc
       0.033677943 -0.013112902 -0.055082653 -0.029369641
0000b0 d9 7e 03 be 0b 20 5c bc 43 c1 07 bc a2 fc 38 bd
       -0.12841357 -0.013435374 -0.008285823 -0.045162804
0000c0 63 97 b1 bc a3 4d f5 3c 5e bc 02 be 4e 7f 5f bd
       -0.021678632 0.029944247 -0.12767169 -0.054564767
0000d0 42 33 9b bd 15 9a 42 3d c9 88 1b 3d 35 a2 ce bd
       -0.07578136 0.047510225 0.037972245 -0.10089532
0000e0 4a d0 09 be b5 f1 2e 3d 40 a4 2d bb c0 d4 57 3d
       -0.13458362 0.04271098 -0.0026495606 0.05269313
0000f0 b5 40 05 3d 12 c9 c4 bd 87 76 e6 bc 60 d2 c1 bc
       0.032532413 -0.096086636 -0.02813269 -0.023659885
000100 39 5c 00 3c d7 59 8c bc 1d d7 c3 3c 5b 34 84 bc
       0.007834488 -0.017132683 0.023906285 -0.016138246
000110 db 9c da bd 68 9b 92 bd ad d2 e4 3b dd e2 ae bc
       -0.10674449 -0.07158548 0.0069831223 -0.021348411
000120 2f 02 2c bd 89 a2 f1 bc 22 a8 98 3c 51 24 48 3d
       -0.04199427 -0.029496448 0.01863486 0.04886276
000130 d6 28 e2 bc 1b 7a 4c bd bb 69 55 3d db 46 eb bc
       -0.027607363 -0.049921136 0.052102786 -0.02872031
000140 b8 89 68 bd 3e 7c a4 3a 38 4d 8c 3d 0b 5c bd bb
       -0.056771964 0.0012549234 0.06850666 -0.0057787946
000150 21 19 e3 3c 30 b5 cd bb e8 f3 ef bd 61 65 51 3d
       0.027721943 -0.0062777027 -0.11716443 0.051122073
000160 48 b6 d8 ba 46 4f 87 bd c4 6a 40 3d 41 ec ac bd
       -0.0016533816 -0.06606917 0.04697682 -0.08443499
000170 dc 04 d4 bd 8e 8e 91 bc 06 1f 68 bd 30 50 9c 3d
       -0.10352489 -0.01776817 -0.05667021 0.07632482
000180 fc b5 8c 3d 69 33 7d bd 57 75 09 be a4 fd 28 bd
       0.06870648 -0.061816607 -0.13423668 -0.041257516
000190 85 22 87 3d 46 3b 08 3d 05 e2 08 bd ae 68 2b bc
       0.06598381 0.033259653 -0.033418674 -0.010461969
0001a0 29 f8 bd bd 5b 1b af bc fd 04 23 bd cb 81 43 bd
       -0.092758484 -0.021375349 -0.03979968 -0.047731202
0001b0 59 97 75 bb 10 5f ca 3c ae 88 84 3b 32 7e c0 bc
       -0.0037474243 0.024703532 0.004044614 -0.023497675
0001c0 69 fa 9c bd f2 71 5b 3c 66 78 3d 3d fe 35 eb 3c
       -0.076649494 0.013393866 0.0462574 0.028712269
0001d0 e0 38 5d 3a 06 8a e8 bc ac 4a 60 3d 33 08 0c 3c
       0.0008438956 -0.028386127 0.054758713 0.008546877
0001e0 1b 91 9e bc 51 3a 0b 3d 37 93 9a 3b 46 8e 5d 3c
       -0.019356301 0.03399116 0.0047172564 0.01352269
0001f0 b2 40 a7 3c e8 4b 35 bd f1 d6 8a 3d c5 5e 74 bc
       0.020416591 -0.044261843 0.06779278 -0.014915173
000200 f0 d8 6b bd fc 69 b2 3d f1 69 a2 bd 1f af f3 bc
       -0.057579935 0.08711621 -0.07930363 -0.02974659
000210 8c de 33 3c 1c d6 6b bb 42 c4 c4 bc 1c 77 ae 3b
       0.010978352 -0.0035985773 -0.024019364 0.0053242575
000220 d4 e0 16 3d fb 81 8d 3d 0a 48 6a bd ed d3 28 bd
       0.036835507 0.069095574 -0.057197608 -0.041217733
000230 c2 ce b0 bd 4d 2b 2f 3c 41 b6 7a bc 05 df 92 3d
       -0.08633186 0.010691476 -0.015302242 0.07171444
000240 fa 34 a8 bc 73 49 89 bd 91 6c 18 3b 0f e8 c0 bc
       -0.020533074 -0.067034625 0.002325807 -0.023548154
000250 13 81 9c 3b 23 bb 86 bd 17 7a 1e 3d 17 f2 f5 bd
       0.004776129 -0.06578662 0.038690653 -0.120090656
000260 2e 16 38 bd 10 41 64 bc 4f ea f4 bb 9b 4a 3f 3d
       -0.044943027 -0.013931528 -0.007474221 0.04670201
000270 37 9b 9d bc e8 b1 b5 bd 9f 97 76 3d 82 eb 2a bd
       -0.019239051 -0.088718235 0.06020319 -0.041728504
000280 d1 49 54 bd 6c 27 8f 3c c1 a9 90 bd 5b 29 c2 3c
       -0.05182821 0.017474853 -0.07063628 0.02370136
000290 da ca 2d 3d 89 fc 3d bd 01 33 01 3d f9 36 0d 3d
       0.042429782 -0.046383414 0.03154278 0.034476254
0002a0 1d 52 73 bc 22 bf a8 bd 2c 5c 01 bd 7b 02 8e bd
       -0.01485112 -0.08239581 -0.031582043 -0.06934067
0002b0 b7 54 04 ba 06 b9 20 bd a4 bf 55 bd fc 56 15 bd
       -0.0005048024 -0.039238952 -0.052184716 -0.036459908
0002c0 89 83 a0 bd fb 6e 3e bc 2b 60 1f bc de d5 8c bc
       -0.07837588 -0.0116231395 -0.009727518 -0.017191824
0002d0 fc c9 98 bd 77 19 20 3d 8d 74 24 bd de bf ff bc
       -0.074604005 0.039086785 -0.040150214 -0.03121942
0002e0 54 4d 77 bc b3 16 33 bd b4 bf f8 bd ad 81 72 bb
       -0.01509412 -0.04372282 -0.121459395 -0.0037003562
0002f0 5a 0b b2 3b ee 2e 1b 3d 81 af 34 bd 20 4f 40 3d
       0.005433482 0.037886553 -0.044112686 0.04695046
000300 6f 24 82 bd b7 53 f3 3c d7 d2 c9 bd 66 07 3f bc
       -0.063546054 0.029703004 -0.09854668 -0.011659479
000310 85 bb 53 3d 24 9c cd bb 73 bb f9 bd 4f 5d b4 3c
       0.051692504 -0.006274717 -0.12193956 0.02201715
000320 b8 27 97 bd 7b a3 65 3c 38 76 59 3d 84 ca 79 bc
       -0.073806226 0.014016028 0.053091258 -0.015246037
000330 8c 50 6e bd e4 6f df 3d 01 a7 39 bd 22 ea dd bc
       -0.058182284 0.10910013 -0.045325283 -0.027089182
000340 e5 36 58 bd a4 6a 09 3d 6d bf bf bd ad 1b a7 3d
       -0.052786727 0.033548966 -0.093626834 0.081595756
000350 a5 81 4d bd 44 82 40 3c 33 34 07 bd a9 99 30 bc
       -0.050172467 0.011749808 -0.033008765 -0.010778823
000360 0d 3f 80 bd b9 e7 b1 3d a0 de de bc 9b 36 b0 bc
       -0.06262026 0.08686776 -0.027205765 -0.021510413
000370 4e fd 73 3d 3f 95 5d bc 1d b0 08 bc 65 40 b4 3d
       0.059567742 -0.013524353 -0.00834277 0.08801345
000380 1c 0b 85 3d a6 76 4f 3d 9e 48 7e 3b e7 67 5d bd
       0.064962596 0.05065026 0.0038800607 -0.054054167
000390 fe 2b bb 3c 36 12 44 3d 5f 43 0b 3d d3 d5 6c 3d
       0.022848126 0.04786893 0.033999797 0.057821106
0003a0 87 9b 2e bb 9e ac 15 3d 60 af 20 3d 9c d3 cc bb
       -0.0026642994 0.036541574 0.03922975 -0.0062508117
0003b0 0f aa 89 bd 96 0d 0e 3d 4c da 7b bd 39 9d 0d bd
       -0.06721889 0.034680925 -0.06148748 -0.034573767
0003c0 51 57 87 bd 83 d8 9e 3d b5 d7 12 bd b8 ef f0 3c
       -0.06608451 0.0775614 -0.035850246 0.029411182
0003d0 3c 11 cd bb 3a 53 0c 3c 7b c5 ac bd de bc de 3c
       -0.006258158 0.008564765 -0.08436104 0.027189668
0003e0 2f 5d 12 3d f6 43 88 bd be 2c 0b bd ec a7 98 bc
       0.035733398 -0.066535875 -0.033978216 -0.018634759
0003f0 bf e2 39 3c 1e 80 4e bd 81 ae 8c 3c 28 54 52 3d
       0.011345564 -0.05041515 0.017173054 0.05134979

StatefulPartitionedCall/model_1/conv2d/Conv2D_bias f4 [32]
000000 64 62 87 bd 1b 57 8c bd 68 1a 7f bd 6f 0a ff 3b
       -0.066105634 -0.068525515 -0.062281042 0.007783226
000010 2e b7 5c bd ad f0 ab bc f5 c7 e3 bc 65 ea d2 bd
       -0.05388563 -0.020988787 -0.027805308 -0.102986135
000020 e2 b0 ba bd b9 e8 be bd d7 c7 03 be d9 5e d1 3d
       -0.09115769 -0.09321732 -0.12869202 0.10223169
000030 b0 80 ef 3c da 00 86 3c 03 13 42 bd 1b 03 f1 3d
       0.029236168 0.016357828 -0.047381412 0.117681704
000040 3b 24 ce 3b 00 fe 93 bd 40 ed 48 bd 99 dc 30 bc
       0.00629094 -0.07226181 -0.049054384 -0.010794782
000050 c9 53 94 bd f5 d1 5d bd 06 0c 84 bd f2 08 82 bd
       -0.07242543 -0.05415531 -0.06447606 -0.063493624
000060 84 6a 86 bd 03 a6 d2 bd 0e b7 6b 3b 2d 42 50 bd
       -0.06563285 -0.102855705 0.0035967263 -0.05084436
000070 fd ea af bd f0 e8 d3 bd a3 83 4f bd 20 77 69 bd
       -0.08589742 -0.10347164 -0.050662648 -0.056998372

StatefulPartitionedCall/model_1/conv2d_1/Conv2D/ReadVariableOp f4 [64, 1, 16, 32]
000000 4f bb 55 bd 9e 87 95 3c 4b 90 bb 3c f9 ea 33 ba
       -0.052180585 0.018253144 0.022895953 -0.0006863322
000010 7b 46 7b bd 0c 67 20 bc 9d 77 a5 bc 30 be 02 be
       -0.061346512 -0.009790193 -0.020198638 -0.12767863
000020 78 6e bb bc ef bf db 3c 92 f3 3f 3c 0e cf b5 bc
       -0.022879824 0.02682492 0.0117157865 -0.022193458
000030 fb 01 44 bc 5d 88 9a bc 85 7c f0 3c 13 e9 46 bc
       -0.011963363 -0.018863851 0.02935625 -0.01214053
000040 2d 1a 93 3c 6f 84 87 bc 35 7e 04 39 ca 17 12 bc
       0.017956818 -0.016542641 0.00012635517 -0.008916805
000050 44 88 f3 3c 44 52 65 3b 88 8d eb 3d ee 83 25 3d
       0.029728062 0.003499166 0.11501604 0.04040902
000060 8b 76 10 bd 9f ce 27 3d c0 e3 56 3b 6c 76 1e bd
       -0.0352693 0.040968534 0.0032789558 -0.038687155
000070 9c 91 32 bd 03 87 b5 bd 7e 58 97 bd d8 83 be bc
       -0.043595895 -0.08863642 -0.073899254 -0.023256227
000080 c2 43 30 3c 3c da 39 bd 9e 96 0e 3d b3 8c 3c bc
       0.010758342 -0.04537414 0.03481161 -0.011508155
000090 4d e2 b8 3b 42 72 bc 3b fd 82 43 bd 56 c8 8a bd
       0.0056422115 0.0057509253 -0.047732342 -0.06776492
0000a0 ec f5 38 3d 0a 4e ec bc 34 54 9e bd 95 11 99 3d
       0.045156404 -0.028845806 -0.07730904 0.07474057
0000b0 69 f1 f7 bc 6e 01 e5 3b 87 bd cc 3c 8d e6 9e bd
       -0.03026648 0.006988696 0.024992717 -0.07758818
0000c0 f6 d6 7b bd 3a cc b8 bc 8c ba 12 bc f0 d0 6a 3d
       -0.0614843 -0.02255832 -0.008955609 0.057328165
0000d0 10 93 6e 3d 26 fe 63 3c c3 27 bb 3d 00 5c 77 3c
       0.05824572 0.013915574 0.09138443 0.015097618
0000e0 ad 70 12 3d 1d 52 f9 3b 62 f7 02 3d 03 1a d3 bc
       0.035751987 0.0076086656 0.031974204 -0.02576924
0000f0 af f9 de 3c 9f ad 61 bd 8f 0d 7c bd da e0 24 bd
       0.027218668 -0.05509722 -0.061536368 -0.040253498
000100 ec 4c ca bc 54 ea 6a bc aa e6 37 3d d0 05 1d 3b
       -0.024694882 -0.014338095 0.044897713 0.0023959763
000110 d1 5d a1 3c 5d 0d bf bc 72 b3 5f bd 83 14 a8 bd
       0.019698055 -0.023321802 -0.05461449 -0.08207037
000120 62 57 ea bc dc e5 d5 3b aa 3b 85 bc 56 7e de bc
       -0.02860612 0.0065276455 -0.016263802 -0.027159851
000130 be 14 73 bc 1f f5 9d bd 71 a5 02 3d 38 3d a7 bd
       -0.014836488 -0.07712769 0.03189606 -0.081659734
000140 1b 50 53 bc c9 f0 6b 3d 17 b8 61 3a 35 fb 09 bd
       -0.012897517 0.057602677 0.00086105004 -0.033686835
000150 7b 93 99 3c df 07 98 bd 27 61 a5 3d 41 21 58 bd
       0.018747082 -0.07423376 0.08075171 -0.05276609
000160 62 71 88 3d 05 dc b3 3c de 2a 46 bd 79 f9 1e 3c
       0.06662251 0.0219555 -0.048380725 0.009703034
000170 2b 5e 0b bd cf 95 c8 bd 16 8e 8b bb b8 7a d2 bb
       -0.034025352 -0.09794199 -0.0042588813 -0.0064233206
000180 63 32 6b bd 9b 25 37 3d 38 14 63 3d 29 91 23 bd
       -0.0574211 0.044713598 0.055439204 -0.039933357
000190 14 cd 67 3c 5f bb 1f bb 23 a4 48 bd cf 86 66 bd
       0.0141480155 -0.0024373156 -0.048984658 -0.056280907
0001a0 21 1d 06 3c 6d 41 e2 3c 92 35 96 ba 76 e5 dc 3b
       0.008185656 0.027619088 -0.0011460057 0.006741221
0001b0 f4 e7 18 bd cd 5e 2e bd df ae 20 bd e4 90 cf bb
       -0.037330583 -0.042570878 -0.03922927 -0.006334411
0001c0 06 61 59 3c bd bf 1d 3b 8d a4 8b 3c ae e2 2f 3c
       0.013267761 0.0024070584 0.017046237 0.010735197
0001d0 d2 a6 f3 bc 37 1e 94 bd a5 09 43 3d b1 b5 d7 bc
       -0.029742632 -0.072323255 0.04761662 -0.026331754
0001e0 18 c0 86 3c fa 9b 2d bc be a4 3c 3d 6b cf 0d bd
       0.01644902 -0.01059627 0.046055548 -0.034621637
0001f0 a3 6d 65 3d 74 de 7d bd a8 f8 47 3d 2c 70 83 bd
       0.05601276 -0.061979726 0.04882112 -0.064178795
000200 4b 72 05 bd 75 40 a7 3c 89 b5 81 3d 69 72 db 3c
       -0.0325797 0.020416478 0.06333453 0.026787953
000210 15 9f ae 3d 08 b8 c7 bb bf 6a 46 3d 21 f9 0a be
       0.08526436 -0.0060949363 0.048441645 -0.13571598
000220 a4 d4 87 3d 93 6f 03 3d 8a bc cb bb 33 6e 11 bc
       0.06632355 0.032088827 -0.006217544 -0.008876371
000230 cb e7 92 3d 1d 2f c6 bc a0 e6 bd bc 5a 5e 68 3d
       0.07173117 -0.024192387 -0.02318126 0.056730606
000240 1a fc 1f bd b7 cb 4f bc 69 4a 6d bd 06 7e d3 3a
       -0.039058782 -0.012682847 -0.05793229 0.001613558
000250 90 ae 90 bc d9 4b 04 bd f1 f2 c2 3d a8 cd 8a 3c
       -0.017661363 -0.032298896 0.09518994 0.016943768
000260 21 0b af 3d 52 03 8a 3c 42 08 30 3d e9 8e e6 bc
       0.085470445 0.016847286 0.042976625 -0.028144317
000270 dc ea c8 3c d6 a5 29 bd b8 44 40 3d db 4d 6d 3b
       0.024526052 -0.04141792 0.046940535 0.0036209736
000280 51 0e 11 bd 3c d9 24 3d fb 43 53 bd fc 5c ea 3b
       -0.035414044 0.040246233 -0.051578503 0.007152198
000290 a9 f6 26 3d 8e 9c 8a 3d 52 6b e0 3c 44 c1 56 bd
       0.040762577 0.06768142 0.027394924 -0.052430406
0002a0 99 72 89 bc 15 08 02 3d e0 e1 90 3d 56 3f 6c bc
       -0.016778277 0.03174599 0.07074332 -0.014419397
0002b0 03 1e 2f 3d 8b 79 1f 3d ee 80 1f bd 19 91 80 3b
       0.04275323 0.03893427 -0.038941316 0.003923547
0002c0 3c 6c 83 3d 57 3f da bb 50 97 06 bd 14 ed ab 3c
       0.064171284 -0.0066603827 -0.032859147 0.020987071
0002d0 1a ff 88 bd 9f 1e 11 3d 0c 91 40 3c 27 17 0d bd
       -0.06689282 0.035429593 0.011753332 -0.034445908
0002e0 c0 93 4c 3d 74 08 85 bc 0e 7d 22 bd 27 07 96 bd
       0.049945593 -0.016239382 -0.039670043 -0.07325583
0002f0 45 8d 84 bc ac a5 12 bd 13 4d 63 3c c8 1f e5 bc
       -0.016180644 -0.03580253 0.013873356 -0.027969256
000300 6e 74 4b bd bf bd c8 bc ba f4 8e bd e1 5f 1b bc
       -0.049671583 -0.02450454 -0.06980272 -0.0094833085
000310 4b ae 33 3d 16 f4 81 bb 85 c1 6c bb d6 ba f3 bc
       0.04386739 -0.003965865 -0.0036126089 -0.029752176
000320 81 45 9e 3c 5d 2a 55 bd d8 ce 6c bb 55 c9 28 3c
       0.019320251 -0.052042354 -0.003613403 0.010301908
000330 51 60 91 3d 3c d1 93 bb 4c ac 34 bd fe 0e b1 3c
       0.07098449 -0.0045110267 -0.044109628 0.021613594
000340 fb 26 98 3d 5f 21 aa 3d b3 c8 a0 bd 9f 1c 81 bd
       0.0742931 0.08307146 -0.0785078 -0.06304287
000350 7b 2f 05 bd 19 0f 5c bd 79 ae 63 3d cb c6 3d bd
       -0.032515984 -0.053725336 0.055586312 -0.046332162
000360 6a 8b c8 3d 24 dc 24 3c 04 ae a4 3c c3 48 eb bd
       0.09792216 0.010062251 0.020102508 -0.114884876
000370 4f c1 99 3c 07 fa f4 bc 4c 10 1f bc 13 45 11 3d
       0.018768935 -0.029904379 -0.009708475 0.035466265
000380 76 d9 74 bd e8 da 5f 3d 8e c6 9c 3c 54 11 0b bd
       -0.0597777 0.054652125 0.019137647 -0.033952072
000390 07 64 bc 3d 37 96 e2 ba bb d1 7f bc 54 f6 fe bd
       0.09198766 -0.0017287199 -0.0156139685 -0.12449327
0003a0 f0 16 0d 3b 30 38 80 bd be 32 4d 3d 55 97 5b 3d
       0.0021528564 -0.06260717 0.05009722 0.05361112
0003b0 53 50 ca 3b 30 64 ef 3a 7f f5 38 3d 28 a9 34 3c
       0.006174126 0.0018264111 0.045156 0.011026658
0003c0 74 cf 8e 3d 00 a8 62 bc 01 7b 36 bd 73 7a 9a bc
       0.06973162 -0.013834 -0.0445509 -0.018857216
0003d0 01 d6 ab bc 99 f6 b8 3c 7d 97 a4 3d 5f fe 8d bc
       -0.020976068 0.022578524 0.080367066 -0.017333208
0003e0 11 17 74 3d 49 37 20 bd cf 86 95 bc 80 ea bf bd
       0.05959231 -0.039115224 -0.018252758 -0.09370899
0003f0 23 96 74 bd b0 c8 b2 3c 58 c7 81 3b 3e 06 37 3d
       -0.059713494 0.02182421 0.003960531 0.044683687

StatefulPartitionedCall/model_1/conv2d_1/Conv2D_bias f4 [64]
000000 a9 59 0b bd e7 ae bf bd cf 67 83 bc 5a c4 e2 bc
       -0.034021053 -0.09359532 -0.01604071 -0.027681518
000010 bd df ac 3c dc c7 44 3b 58 62 2a bd 3b 98 88 bd
       0.02110278 0.0030026352 -0.041597694 -0.06669661
000020 4f f9 08 bd 70 1a b4 bc 9a be 9c 3a 57 c5 14 3c
       -0.033440884 -0.021985263 0.0011958659 0.009080253
000030 1b 61 1a bd e6 86 11 bd 0b 9a e2 bc 49 52 17 bd
       -0.037690263 -0.03552904 -0.027661344 -0.036943708
000040 8d 94 e0 3d c7 16 c7 bc 88 e5 87 bd b5 35 a9 bc
       0.10965834 -0.024302853 -0.066355765 -0.020655492
000050 c2 95 67 bd 05 fa 9b bb 0d 2a c3 bc 00 28 ae 3d
       -0.056539305 -0.0047600293 -0.023823762 0.08503723
000060 71 f0 2d bd ef 1d 01 3e a4 de 78 bd 2c a0 07 3c
       -0.04246563 0.12609075 -0.0607592 0.008277934
000070 a8 37 df bc bd 1f 7f 3d 58 2b 06 3d 99 96 70 3d
       -0.027248219 0.062286127 0.03275618 0.05873737
000080 3d ae d9 3b 0e 8e 3a 3d 77 5f 6d 3d 4b a7 a2 bc
       0.0066430853 0.04554563 0.05795237 -0.019855162
000090 14 df 6a 3c ea 3d 53 3d fc 14 51 bd fb f7 b7 3c
       0.0143354125 0.051572718 -0.051045403 0.022457113
0000a0 ee e2 b2 3c b5 9f 8b bc 27 33 0a bd e9 e1 85 bd
       0.021836724 -0.017043928 -0.03374019 -0.065372296
0000b0 d0 68 98 bd 6c 9d 19 3b ff b4 14 3c 49 ba 34 bd
       -0.074418664 0.0023439778 0.009076356 -0.044122968
0000c0 1d 18 bf 3c 07 8e 1c bd 87 c9 93 bd 85 e7 31 bd
       0.023326928 -0.038221385 -0.07216173 -0.043433685
0000d0 22 c0 71 3c eb c2 06 bd 2d 4a 04 bd b7 b3 9c bc
       0.014755281 -0.032900732 -0.032297302 -0.019128663
0000e0 ba 9c 4d bd 9e 52 8d bc f3 a2 f5 bc 9b 21 79 bd
       -0.050198294 -0.017251309 -0.029984927 -0.060823064
0000f0 c5 dc eb 3b ed 80 da bc 62 20 33 bd a6 99 34 3d
       0.0071979486 -0.026672805 -0.043732055 0.044091843

StatefulPartitionedCall/model_1/conv2d_2/Conv2D/ReadVariableOp f4 [96, 1, 8, 64]
000000 b3 12 75 bb fb 91 85 bd bc 49 2e bd c0 42 e8 3c
       -0.0037395179 -0.06521984 -0.042550787 0.028352141
000010 32 5b 00 3d 6c 31 03 bd 59 ad aa bc 8b e7 45 3c
       0.03133697 -0.032029554 -0.020834612 0.01207913
000020 e6 c7 b3 3a 57 1e 17 bd e9 38 29 bd b1 16 10 3d
       0.0013716191 -0.03689417 -0.04131404 0.03517789
000030 e0 03 4a 3d c3 4e b4 bc 74 c3 81 bd 26 fb ce 3b
       0.0493201 -0.022010213 -0.06336108 0.0063165603
000040 2c c2 2c 3d c0 1d 3c 3d 74 30 f8 bb da 09 87 bd
       0.042177364 0.04592681 -0.0075741354 -0.06593676
000050 f6 c8 88 bc 09 e2 d6 bb 9f 52 9a bc 37 fd 81 3d
       -0.016697388 -0.006557707 -0.018838225 0.06347125
000060 d1 6f 56 3d e8 84 83 3d ac 09 0b 3d b9 27 1c bd
       0.05235273 0.06421834 0.03394477 -0.03812382
000070 ed 8e 8b bd 1a 38 16 bd c1 ff 1f 3b c0 02 a1 bb
       -0.0681437 -0.036674596 0.0024413916 -0.004913658
000080 31 1a ae bc 93 7f b2 3c aa db 8f bc 68 d2 84 3b
       -0.021252723 0.021789348 -0.017560799 0.0040534027
000090 9b 98 a3 bc 4f bf 46 3c 42 9f 82 ba f9 13 7c bd
       -0.019970229 0.012130572 -0.0009965675 -0.061542485
0000a0 47 ad a5 3c 53 4b 96 3c d1 36 81 bd 26 4d 37 3d
       0.020224227 0.018346464 -0.063092835 0.04475131
0000b0 1e 03 0e bd 2b 79 59 bd 31 a9 13 3d f0 03 02 bc
       -0.03467094 -0.05309407 0.036050025 -0.007935509
0000c0 13 d4 1e bd f7 cb 8a bd 6e 66 35 3d 34 d4 1e bd
       -0.03877647 -0.067771845 0.044287138 -0.03877659
0000d0 81 7b 26 bc ff 9a e7 3b 67 97 f1 bc 6c 16 cf 3c
       -0.010161282 0.0070680375 -0.02949114 0.025279246
0000e0 38 a2 99 bc 3d e7 1d bd 53 db d5 ba 4f ac a6 bc
       -0.01875411 -0.038550604 -0.0016315974 -0.020345835
0000f0 6a e6 f2 bc 38 bc 64 bd e8 6a 06 3d 4d fe 76 3d
       -0.029650886 -0.055843562 0.032816797 0.060301114
000100 49 5e 40 bc e7 c8 18 bd 9b 67 63 bc 4b fc f2 3c
       -0.011741229 -0.03730097 -0.013879682 0.029661318
000110 dd a1 e5 3b cc 89 01 3c dd 9f 89 bc 70 f8 7a 3c
       0.007007821 0.0079063885 -0.016799862 0.015318021
000120 ce 52 04 bc d0 e6 ab 3c 17 dc af bc fc 3b 45 3d
       -0.008076383 0.020984083 -0.021467252 0.04815291
000130 5f 0b 81 3c a8 21 22 bd dd 0f 9b bc fa c0 f0 3b
       0.015752492 -0.03958288 -0.018928463 0.0073472233
000140 26 6b e9 3c 4d 86 eb 3c 47 6b ce ba 02 eb b1 bd
       0.028493475 0.028750563 -0.0015748524 -0.08687402
000150 d6 a9 00 3d d6 5d cd bb a1 c6 01 bd 2b 12 b7 3b
       0.03141197 -0.0062672896 -0.031683568 0.0055868826
000160 b7 53 0f 3d 85 43 8d 3d 28 f5 74 bc 5c 28 c5 bc
       0.034991946 0.06897644 -0.014951028 -0.024067096
000170 72 21 1e bd b7 eb 1a 3d c3 64 0d bd 53 a2 39 3d
       -0.038606115 0.03782245 -0.034519922 0.04532082
000180 9b f7 f0 bc 1d a4 e8 bc 97 6b 2d bd 42 b1 cb bb
       -0.029414942 -0.028398568 -0.042338934 -0.006216199
000190 13 bc 11 bd 5f fe 9d 3d 11 f3 3b bd 56 77 11 3d
       -0.035579752 0.07714533 -0.045886103 0.0355142
0001a0 78 05 14 bd 81 ac 34 3d 81 ca 8e bd 66 c8 0d 38
       -0.036138028 0.044109825 -0.06972218 3.3803655e-05
0001b0 61 da b2 3c 1d 4d 10 bd d7 69 a6 3c c0 a9 0e bd
       0.021832647 -0.03522979 0.02031414 -0.034829855
0001c0 2a 6e 93 3d 37 c1 3b bd 9e 94 44 3c 7e 95 dc bc
       0.071987465 -0.04583856 0.011998324 -0.026926752
0001d0 c1 c7 05 bd c8 f4 0b 3d 97 62 94 bd b5 7b 7d bc
       -0.032661203 0.03416899 -0.07245367 -0.015471389
0001e0 d7 60 36 bd b5 ca 67 3c df e5 01 bd 99 ff 82 3c
       -0.044525947 0.01414745 -0.031713363 0.01599102
0001f0 31 23 95 bc 04 1a 94 bb c0 70 53 bc 5c 3b 8b bc
       -0.018205257 -0.004519703 -0.0129053 -0.016996078
000200 64 a4 3c bd ad 46 d6 bc d8 ee d9 bc 53 76 80 3c
       -0.046055213 -0.026156748 -0.026603147 0.015681421
000210 d9 13 71 bd f7 72 73 bc 79 3a 04 bd 12 e7 79 bc
       -0.05885682 -0.014858953 -0.032282326 -0.015252845
000220 60 02 9a bb 63 b1 95 bd c2 6a 9a 3c 79 2e 49 3c
       -0.00469999 -0.073092245 0.018849734 0.012279146
000230 93 43 4c 3d b4 27 88 ba 97 dc 13 bd 1e 76 53 bd
       0.04986913 -0.0010387809 -0.036099043 -0.051626317
000240 13 b7 f0 bc 32 79 e0 39 33 6e c5 bc 5f df 95 bd
       -0.029384172 0.00042814907 -0.024100399 -0.07317995
000250 39 18 2f 3d a3 fc 4d bc a2 20 b4 bb 2f ef 26 3d
       0.04274771 -0.01257244 -0.005497054 0.040755447
000260 74 a4 6a 3d b1 25 40 3c 63 4c 04 3b 11 82 6b bb
       0.05728574 0.011727736 0.0020187132 -0.003593568
000270 8f fc 44 bd 30 ff f1 bc c9 5e 10 bd 79 27 15 3d
       -0.04809242 -0.029540628 -0.035246644 0.036414597
000280 76 29 5d bc 35 b0 9b bd 17 90 44 3d 00 9e 98 bd
       -0.013498655 -0.07601968 0.047988977 -0.07452011
000290 b5 41 69 bd ed ab 25 3d fd 7a c8 3c b1 5f 69 bd
       -0.05694743 0.040447164 0.024472708 -0.056976024
0002a0 37 3a 8b bc a7 cb 45 bd d6 6c 6a bc b1 11 20 bd
       -0.016995532 -0.04828992 -0.014308175 -0.03907937
0002b0 ab f5 62 3b 11 76 16 bd e3 f5 ce bc db 5b 11 bd
       0.0034631293 -0.03673369 -0.025263732 -0.03548799
0002c0 50 95 55 3c eb 12 7a bc c3 20 aa 3c 8b 08 de 3c
       0.013036087 -0.015263299 0.020767575 0.027103683
0002d0 38 db 78 3d a4 51 18 3d 27 84 c3 3c f6 e8 55 bd
       0.06075594 0.037187234 0.023866726 -0.052224122
0002e0 bc 21 70 bd 97 5b 68 bc 29 f0 ce 3c ed a0 a5 3c
       -0.05862592 -0.014181993 0.025261002 0.020218337
0002f0 5a 47 8a ba 6a ec ec 3b be 1c af 3b 03 bf 36 3b
       -0.0010549829 0.007230331 0.0053440025 0.0027884848
000300 c9 92 fa bc 12 aa aa bd 88 08 35 bd f5 43 bf 3c
       -0.03058757 -0.083332196 -0.04419759 0.023347834
000310 86 5a ab b9 f0 74 01 bd 4b 83 08 3c 0e de ae 3c
       -0.00032683107 -0.03160566 0.008332084 0.021346118
000320 9d 4a 20 bb 0c c8 cc 3c b6 8c 65 bd 3c bf 49 3d
       -0.0024458535 0.024997734 -0.056042396 0.04925464
000330 55 2b 13 bb 51 86 02 bd 49 d1 5f bd 5c ba d2 bc
       -0.0022456248 -0.031866375 -0.05464295 -0.025723629
000340 77 ed 28 bc 2b 19 f6 3c b7 1a d6 bb c5 18 a4 bd
       -0.010310522 0.030041298 -0.0065339464 -0.08012537
000350 4f 87 c7 3c 19 f2 03 3c af 71 83 bc 05 dc 01 bc
       0.024356512 0.008053326 -0.01604542 -0.007925992
000360 d0 00 81 3d 3c 4f 81 3d 33 84 5a bc b7 de 36 bd
       0.06298983 0.06313941 -0.013337183 -0.04464599
000370 36 e3 2f bd 24 7b 2a 3d 61 33 ca 3b 25 5d 60 bd
       -0.042941295 0.041621342 0.0061706756 -0.05477633
000380 d1 df 1f bd 8a 7c 45 bd 37 19 71 bd 4c 15 9b 3c
       -0.039031807 -0.048214473 -0.058861937 0.018931054
000390 2d ba dc bc 71 0e dd 3c a4 00 25 bd 20 a7 20 bd
       -0.026944244 0.026984425 -0.040283814 -0.039221883
0003a0 8b a7 23 bb db dd 8a 3b c3 cc d2 bc 69 af b5 bc
       -0.002497169 0.004237873 -0.025732404 -0.022178369
0003b0 57 d9 a8 3c d2 3d 16 bd df 16 84 bd ce 0b 4f 3d
       0.020611448 -0.03668005 -0.06449675 0.050548367
0003c0 52 21 9c bc 20 98 ff 3c 4f 70 20 bc a4 a4 89 3a
       -0.019058857 0.031200469 -0.009792401 0.0010501337
0003d0 35 73 05 3d a2 3b 23 bc 27 86 68 bd 97 07 90 bc
       0.032580573 -0.009962948 -0.056768563 -0.017581744
0003e0 8a 29 da 3c 8e 19 33 bd 62 2a e4 3a 7a a0 6d bb
       0.026631135 -0.043725543 0.0017407651 -0.0036258982
0003f0 30 1b e3 bc 9d 84 de 3b 34 2d 06 bd 2c a5 e0 bc
       -0.027722925 0.006790711 -0.032757953 -0.02742251

StatefulPartitionedCall/model_1/conv2d_2/Conv2D_bias f4 [96]
000000 5e 15 c4 3d e4 e6 e9 3c c9 7a cf bc 4e da b0 bc
       0.09574388 0.02855248 -0.025327103 -0.02158847
000010 fd b2 cb bd 77 8e b4 3c 93 43 8c bd b9 03 79 bd
       -0.09946249 0.022040589 -0.06848826 -0.060794566
000020 1f 2e 03 bd 6e e6 2a 39 4c 69 a2 3d 89 3c a3 bc
       -0.032026406 0.00016298305 0.0793024 -0.019926326
000030 3d 97 10 3d 21 7a b0 bc 1a 82 06 3b 27 81 4b 3d
       0.035300482 -0.02154261 0.0020524324 0.049683716
000040 1c e9 96 bc 09 86 73 bd 99 9d 0f bd da cf ff bc
       -0.018421702 -0.059453998 -0.035062406 -0.031227041
000050 be 05 0c bd 78 a3 32 bc 0d af 81 3d 5d bd 9b 3d
       -0.034185164 -0.010903232 0.063322164 0.076044776
000060 8b e1 aa 3d 90 be ea bc 91 2f 39 bc 5f 27 0d bd
       0.083438 -0.02865532 -0.011302845 -0.034461375
000070 5d 5f d0 bb 79 e1 8f 3d ef 71 67 3d d6 a1 d5 bc
       -0.0063590244 0.07025427 0.05650514 -0.026078146
000080 a7 1e f4 bc 00 2f ad 3b 6b 25 63 3d cc 15 2d bc
       -0.029799772 0.005285144 0.055455606 -0.010564279
000090 c7 a8 77 3d 3a 3c 62 3d 44 ba 71 bd b7 88 ce bc
       0.060463693 0.055233218 -0.059015527 -0.025211675
0000a0 12 18 92 3c 7d 18 1c bc 4a 1e ad bd ce 7c 15 3b
       0.017833743 -0.009527323 -0.08453043 0.0022809985
0000b0 cc 9a e9 ba 05 d1 92 bd 18 9d e7 bc 10 cb 6c bd
       -0.0017822622 -0.071687736 -0.02827315 -0.057810843
0000c0 2b bf 74 bd f2 a3 72 bd e4 f2 98 3d ab a7 86 bc
       -0.059752624 -0.05923838 0.07468203 -0.016437372
0000d0 70 7d 5d 3d 24 a1 bf 3b d9 44 16 3d f0 af 2e bd
       0.054074705 0.005848067 0.036686752 -0.042648256
0000e0 ae ee 45 bd e7 1c 2f bd a0 bb 70 bd 58 73 24 bd
       -0.048323326 -0.042752173 -0.058772683 -0.040149063
0000f0 dd 21 11 bd ac 7e 33 3d 7c 95 ad 3b d3 42 20 bd
       -0.035432685 0.043821976 0.005297361 -0.03912623
000100 94 46 d7 3c 9b 73 87 3c d0 da 14 3a 30 9b eb bc
       0.026278771 0.016534617 0.00056783576 -0.028760523
000110 70 71 1d bd da e1 e4 bc 46 6e 0a 3d 2e 6f b7 bc
       -0.03843826 -0.027939726 0.03379657 -0.022391882
000120 5e e9 70 3c 7b c4 52 3b f9 49 83 bc 85 cf 14 3d
       0.014704077 0.0032160569 -0.016026484 0.03633072
000130 e4 57 8a bc fe e4 c8 3b 69 9b 41 3c 9d a9 c6 3d
       -0.016887613 0.0061308136 0.011816838 0.0970032
000140 a6 0d 2b bd fc 94 73 3b 34 1f 80 bc 9a a2 94 3d
       -0.041761063 0.003716766 -0.015639879 0.07257576
000150 69 82 bf 3c 01 7d 9e bc a9 29 98 3d 33 b8 0e 3b
       0.023377614 -0.019346716 0.07429821 0.0021777272
000160 8d 4a 66 bd f6 19 9c 3d 19 ee 96 3c 87 4c 52 bd
       -0.05622344 0.07622139 0.01842408 -0.051342513
000170 f2 9b 35 3d 83 78 ab bd 11 60 72 bc 84 42 3c bd
       0.044338174 -0.08372595 -0.014793412 -0.04596187

StatefulPartitionedCall/model_1/encoder/Conv2D/ReadVariableOp f4 [128, 1, 4, 96]
000000 23 3b 53 bd 27 fd 0d bd b9 3f 03 bd 44 38 40 ba
       -0.05157007 -0.034665253 -0.032043193 -0.0007332603
000010 28 ca 84 3d 1e 80 72 bd fa 50 19 bd 7d 80 98 bd
       0.06483871 -0.059204213 -0.03743074 -0.07446382
000020 14 77 82 3d 68 3f 23 3d 31 1c 02 3d 60 20 45 3d
       0.063703686 0.03985539 0.031765167 0.04812658
000030 e8 8f ec bd f0 a6 eb 3b 37 26 b9 3d b0 cb 5b bc
       -0.115508854 0.0071915314 0.09040492 -0.013415262
000040 ab 01 8e 3d f0 91 0a bd fd 98 56 3b f5 ad 99 3d
       0.06933912 -0.033830583 0.0032744997 0.07503883
000050 21 16 9b 3d c8 ee c7 3c a0 61 83 bc fa 8b ad 3d
       0.0757258 0.024405852 -0.016037762 0.08473964
000060 98 9f a1 3c e9 ed 98 3d 40 be 91 3a 24 ab 28 3c
       0.01972942 0.07467253 0.0011119321 0.010294709
000070 52 8b 26 3b 37 15 60 bd 04 4e a7 bb 83 8b 1e bc
       0.0025412631 -0.054707732 -0.0051057357 -0.009676817
000080 56 d2 55 bc b9 b0 0c 3d 77 3b 71 3d 08 67 31 3c
       -0.013050636 0.034348223 0.0588946 0.010827787
000090 2c 58 d9 bd f2 15 fa bc d8 54 57 bb cd e0 6f 3d
       -0.106125206 -0.030528042 -0.0032856967 0.058563996
0000a0 9b 29 5a bd 00 94 95 3d 9b 63 f8 bc 77 c1 c0 bc
       -0.053262334 0.073036194 -0.030320933 -0.023529751
0000b0 f3 69 58 bd 87 f3 0f bd 78 ac 83 bc b6 0d 3b 3d
       -0.052835416 -0.035144355 -0.01607345 0.045667373
0000c0 71 64 13 bc 7d 71 af bd 75 c2 e2 3b e9 bd 16 bd
       -0.008996115 -0.08566568 0.0069201537 -0.036802206
0000d0 98 f3 81 3c 5f 8c 8d 3c 5c 12 b6 bb 71 e6 81 bd
       0.015863225 0.017278848 -0.005556388 -0.06342781
0000e0 c2 65 ef bc da 80 f4 3c 79 9a 64 bd 71 75 52 3d
       -0.029223327 0.029846597 -0.05581138 0.051381532
0000f0 c4 a0 46 bd 0e b4 07 3d 2c 49 4c bc 30 0e b5 3c
       -0.04849316 0.033130698 -0.012468617 0.022101492
000100 6c 00 cb bc a0 f0 cf bc 18 39 5c bc e5 b8 84 3d
       -0.024780475 -0.025383294 -0.013441347 0.06480578
000110 bc 77 90 3d 23 13 ea bc b5 bf ab bd ba 8c f1 bc
       0.070540875 -0.028573578 -0.083861746 -0.029486049
000120 fb 0b 3e bd d5 88 80 bd c1 4d 05 3d b9 92 62 bd
       -0.046398144 -0.06276099 0.032544855 -0.055315707
000130 0b 48 32 3d e0 94 c1 bd 62 a7 bb 3c f6 cd 07 bd
       0.043525737 -0.09452224 0.022906963 -0.033155404
000140 02 cd 85 3d f9 bf 00 3d 85 b4 ba 3d 06 3b 53 bd
       0.06533243 0.03143308 0.091164626 -0.05156996
000150 29 da a5 ba cf 5c 3b 31 54 b8 02 bd 3a 42 2a bd
       -0.0012653518 2.7264837e-09 -0.03191407 -0.041567065
000160 4e f1 88 bc 1a 3e 69 bd 67 62 31 bd 89 e1 4d bd
       -0.016716626 -0.05694399 -0.043306734 -0.050263915
000170 18 c6 cd 3c 66 0e 31 3d a5 ee be bd 6a 27 0e 3d
       0.025118873 0.043226622 -0.093228616 0.034705557
000180 8b d8 4c bd ea 69 9c 3d 31 4c a1 bd 9d 15 42 bd
       -0.0500112 0.07637389 -0.078758605 -0.047383893
000190 5e 4a 59 bd bf 1f c2 bc 12 99 91 3d 95 12 ab 3c
       -0.053049438 -0.023696778 0.07109274 0.020882884
0001a0 c8 07 0b b9 87 f2 95 3c 5e d2 67 3c 7c 2b 22 bd
       -0.00013258972 0.018304123 0.014149277 -0.03959225
0001b0 fc 7b ae bd 75 0c a9 bc 8d fb ae 3c c1 cf 09 bd
       -0.08519742 -0.020635823 0.021360183 -0.033645395
0001c0 0c 04 84 bd cf a0 6b 3d 4c 25 53 3b e8 f4 33 3c
       -0.064460844 0.057526406 0.0032218276 0.010983683
0001d0 a0 fc e2 3c 8d 85 8c 3d 0c cd 61 bd d8 05 e1 bc
       0.027708352 0.0686141 -0.05512719 -0.027468607
0001e0 4c 6f 02 3d f9 c3 09 bd c1 4a 86 3d c6 fb 73 bc
       0.031844422 -0.03363416 0.06557227 -0.01489157
0001f0 24 01 04 bd 1e fd 80 bc a9 08 31 3d 70 06 76 3c
       -0.03222765 -0.015745696 0.04322115 0.015016183
000200 bf b7 ac 3b 48 1c fd 3b df 4b 54 bd 5c 89 97 bd
       0.0052709277 0.0077243187 -0.05183017 -0.07399246
000210 de 7c c5 bd d7 86 58 bc bc b2 08 3d 46 2d a2 3c
       -0.09642957 -0.013215742 0.03337358 0.019796979
000220 79 2b 93 bd a9 c2 9c 3c eb 87 73 bd fe 80 48 bc
       -0.07186026 0.01913579 -0.059455793 -0.012237785
000230 0a 56 b7 bc bd b1 7b 3d 7a d5 77 bd 55 98 8b bd
       -0.022379894 0.0614488 -0.06050632 -0.068161644
000240 b5 34 ac 3d 84 41 41 3b a1 0f 58 bd ec 4e 21 bc
       0.084084906 0.0029488513 -0.05274928 -0.009845477
000250 29 42 e4 3b 17 cb e2 bb 82 9c 2e 3c df a8 88 bd
       0.0069658947 -0.006921183 0.010657432 -0.066728346
000260 8b 60 18 bc 6e 0f 87 3d da 72 a8 ba 26 a8 82 3d
       -0.009300361 0.0659474 -0.0012851611 0.06379728
000270 0a c2 9a bb c2 16 aa 3d 12 58 52 bc 9b b9 45 3c
       -0.0047228383 0.08305122 -0.01283838 0.012068178
000280 92 04 21 bd 72 b6 8d bd e3 6d b5 3c 0a 8e ff bc
       -0.039311 -0.06919564 0.022147125 -0.03119566
000290 8f e7 48 3d e1 07 af 3c cd 66 23 bc 91 a0 d3 bc
       0.049048956 0.021366062 -0.00997324 -0.0258334
0002a0 e9 55 16 3d 9c 4e 97 bd 78 29 3e bd 00 2d a6 3c
       0.036703024 -0.073880404 -0.046426266 0.02028513
0002b0 31 e2 87 3c f3 7c cd 39 f3 52 9d bd 34 7e 39 bc
       0.016587349 0.0003919374 -0.07681837 -0.011321593
0002c0 d6 d6 8f 3d 54 54 a6 3d fc 82 83 3d 13 04 a2 bc
       0.070233986 0.08121553 0.06421468 -0.019777333
0002d0 2c 64 6a 3c f9 db ac 30 14 d8 27 3d 73 3d 24 3d
       0.014306109 1.2577167e-09 0.040977553 0.040097665
0002e0 96 21 8f bd 72 2f 0f bd e1 0b 21 bd 35 ae c8 bc
       -0.06988828 -0.034957357 -0.03931797 -0.02449713
0002f0 5f 59 e0 bc d4 c0 07 3c 73 b8 7d 3b c2 95 34 bd
       -0.027386365 0.00828572 0.0038714677 -0.044088133
000300 9a 16 c3 3c 61 23 42 3d 4a 6b e2 bc 02 a8 42 bc
       0.023814488 0.04739702 -0.02763905 -0.0118808765
000310 c2 6e 39 bd b7 01 55 bb 29 64 06 bc e8 fc eb bb
       -0.045271643 -0.0032502243 -0.008202591 -0.0072017796
000320 52 b0 e9 3b 10 3e 5d bd f3 2c af 3c 2f 53 ca 3d
       0.0071316147 -0.054014266 0.021383738 0.09879147
000330 32 1e a2 bd 85 91 68 3d 29 07 9a 3c 64 6c 23 bd
       -0.079159155 0.056779403 0.018802242 -0.03989829
000340 e7 de 99 bd 63 6b c0 3c d3 af 65 3b 14 db dc bc
       -0.075132184 0.023488706 0.0035047426 -0.026959933
000350 46 e2 3c 3d 26 37 ee 3c aa 76 05 bd d5 ae 4b b9
       0.04611423 0.029079031 -0.03258387 -0.00019424719
000360 51 2a b1 3c 0f a6 f2 3c 00 1c 45 bd be 22 00 bd
       0.021626623 0.029620199 -0.048122406 -0.031283133
000370 bf bd 83 3d 07 74 57 3d 87 27 4f bd bd 75 23 3c
       0.064326756 0.052600887 -0.050574806 0.009976801
000380 02 bf 59 bc 38 ad be 3c 02 30 94 3d 44 49 5c bd
       -0.013290169 0.023275957 0.07235719 -0.05378081
000390 53 a7 9f bd 83 9a 88 bd 81 41 54 3b 2b 99 a9 3d
       -0.077955864 -0.06670096 0.0032387676 0.082811676
0003a0 4a e9 a2 bd a9 33 65 3c 72 fe 33 3c 41 f7 8d bd
       -0.079546526 0.0139893675 0.010985957 -0.069319256
0003b0 a9 d0 aa bd 32 17 de bc 79 f3 86 bd 00 2e 72 3d
       -0.0834058 -0.02711067 -0.065894075 0.0591259
0003c0 c9 8a 85 3c 81 e4 75 bc b3 fc 19 bc 50 63 39 3d
       0.01630153 -0.015008093 -0.009398627 0.045260727
0003d0 87 36 98 bd f1 28 f9 3b 74 23 61 3d df f6 86 bd
       -0.07432275 0.0076037575 0.05496545 -0.06590056
0003e0 ac 15 6c 3d 93 95 1a bc 7e 6d 76 bd b8 9f c0 3c
       0.057637855 -0.009435075 -0.060163014 0.02351366
0003f0 9f 5e 40 3c 63 73 d6 3c 4e 46 96 bc 62 6e fa 3c
       0.011741309 0.026178068 -0.01834407 0.030570213

StatefulPartitionedCall/model_1/encoder/Conv2D_bias f4 [128]
000000 e5 24 a3 bc cb b8 99 3d a4 4f 94 3d 62 d2 db bc
       -0.019915054 0.075059496 0.07241753 -0.026833717
000010 e4 54 d8 3c d6 41 2c 3d 5c 95 41 3d d8 fd 03 3a
       0.026407667 0.042054974 0.04726158 0.0005035079
000020 4a 51 bd 3d 91 ba d7 3b a2 86 0a bd 9b 59 3a bc
       0.0924402 0.0065835197 -0.033819802 -0.011373903
000030 9f 11 11 bc f6 b0 0e bd 70 67 f5 3c b3 49 49 bd
       -0.008854299 -0.03483673 0.02995655 -0.04914255
000040 ba 2d 4f 3c f0 88 16 bc dc 20 0b 3d 42 19 5e 3c
       0.012645179 -0.009187922 0.033966884 0.013555827
000050 8d 11 8b bc 51 cb 03 bd df 81 83 3d 87 7d 32 3d
       -0.016976142 -0.03217632 0.06421255 0.043576743
000060 00 af 05 bc 1d b0 e4 bb 5e 5a 24 bd 58 c6 a3 bc
       -0.008159399 -0.006979002 -0.040125243 -0.019992039
000070 a4 f1 20 3d 0f a5 9f 3c 26 4e aa 3d 65 7e e4 bc
       0.039292946 0.019487886 0.08315687 -0.0278923
000080 e4 4e ee bc 02 06 65 3d e9 e2 b6 bb c4 a4 8a 3d
       -0.029090352 0.055913933 -0.005581249 0.06769708
000090 13 05 7a 3d 99 e3 aa bc 40 84 a6 bc 4e 36 4c bc
       0.061039995 -0.02086048 -0.020326734 -0.012464119
0000a0 0c d5 1f bd ce c3 8a 3d e2 30 88 bb ce 11 c7 3c
       -0.039021537 0.06775628 -0.004156218 0.024300482
0000b0 6e 56 24 bd 12 e1 e0 bc 49 44 1d bc 57 b1 13 bc
       -0.04012149 -0.027451072 -0.0095988 -0.009014449
0000c0 26 c7 de 39 f3 95 57 3d c6 02 4e bc 26 ce 47 3d
       0.00042491517 0.052633237 -0.012573903 0.048780583
0000d0 4d 5b 08 bd 35 98 60 3d 9f 8c a8 3d 8f 9b fe bc
       -0.033290196 0.054832656 0.08229946 -0.031080035
0000e0 50 be bc bc 09 96 56 bc 4b 05 0b 3d 4c 90 e8 bc
       -0.023039967 -0.013097295 0.033940595 -0.028389119
0000f0 58 a9 91 3b 77 11 3b bc d4 59 46 bc cc c3 36 bd
       0.004445236 -0.011417738 -0.012106378 -0.04462032
000100 3a 70 6f 3d a2 f5 01 3d 3a ec ab 3d 51 4d 75 3c
       0.058456637 0.031728394 0.08394666 0.014972047
000110 b7 c0 24 bd de de 1b bd cf 2f 06 3d 8f 7d 1b 3d
       -0.04022285 -0.03805434 0.032760438 0.03796154
000120 0d e4 89 3d 0c 90 38 bd 4c b0 50 bd 27 d0 83 3d
       0.0673295 -0.04505925 -0.05094938 0.06436186
000130 1c 9f 85 3d 54 b5 ea 39 e7 e0 8f 3d 2e 85 08 bd
       0.06524488 0.00044767058 0.070253186 -0.033330135
000140 38 ed 77 3c 29 7d 13 bd 4d 54 25 bd 85 82 dc 3c
       0.015132241 -0.036008034 -0.0403636 0.026917705
000150 2e 8d 83 bb 11 72 88 bb 31 13 73 bc 8e ee 06 3b
       -0.0040146327 -0.0041639884 -0.014836119 0.0020588967
000160 f4 1f a8 bc 8c 60 30 bd ac f1 88 3c f2 46 7c 3b
       -0.020523049 -0.043060824 0.0167168 0.0038494435
000170 42 12 f1 3c 6b b8 4a 3d 8d 1a 61 bc 01 ea 69 bc
       0.029427651 0.04949228 -0.01373924 -0.014276982
000180 b4 98 af bc e2 9d 1d bd b4 23 22 3d e1 97 10 bd
       -0.02143512 -0.038480647 0.03958483 -0.035301093
000190 bf d7 b5 bb 53 bd 2d 3d 25 cb 43 bc 9d c7 9b 3d
       -0.0055494006 0.04241688 -0.011950289 0.076064326
0001a0 2f 1a bc bc 7c dd 84 bc d6 75 d7 bc 13 44 c4 bc
       -0.022961704 -0.016218893 -0.026301306 -0.023958242
0001b0 5f af 0b bd b8 75 8d 3a e5 5b 3a 3c 51 a1 d1 bc
       -0.034102794 0.0010792529 0.011374448 -0.025589617
0001c0 30 2b 92 bc 88 3e 75 3d 29 7e 78 3b 02 7d db bc
       -0.017842859 0.059874088 0.0037916994 -0.026793007
0001d0 a8 e7 3c 3c 47 5e e8 bc 3a cf aa 3d 72 b9 5f 3d
       0.0115298405 -0.028365267 0.083403066 0.054620214
0001e0 cd 1a a2 3d 3c a6 20 3b 0a c4 ba 3d 01 5f 3c 3d
       0.07915268 0.0024513146 0.09119423 0.04598904
0001f0 c0 ff b7 bc 71 4f bb 3d 4c 08 a9 3d 80 e2 75 3a
       -0.022460818 0.091460116 0.08253536 0.00093797594
